Model(
  (layers): Sequential(
    (0): LinearLayer(
      (linear): Conv2d(1, 64, kernel_size=(1, 1), stride=(1, 1), bias=False)
      (norm): BatchNorm2d(64, eps=1e-05, momentum=0.1, affine=True, track_running_stats=True)
      (acivation): LeakyReLU(negative_slope=0.01, inplace=True)
    )
    (1): LinearLayer(
      (linear): Conv2d(64, 128, kernel_size=(1, 1), stride=(1, 1), bias=False)
      (norm): BatchNorm2d(128, eps=1e-05, momentum=0.1, affine=True, track_running_stats=True)
      (acivation): LeakyReLU(negative_slope=0.01, inplace=True)
    )
    (2): LinearLayer(
      (linear): Conv2d(128, 256, kernel_size=(1, 1), stride=(1, 1), bias=False)
      (norm): BatchNorm2d(256, eps=1e-05, momentum=0.1, affine=True, track_running_stats=True)
      (acivation): LeakyReLU(negative_slope=0.01, inplace=True)
    )
    (3): LinearLayer(
      (linear): Conv2d(256, 512, kernel_size=(1, 1), stride=(1, 1), bias=False)
      (norm): BatchNorm2d(512, eps=1e-05, momentum=0.1, affine=True, track_running_stats=True)
      (acivation): LeakyReLU(negative_slope=0.01, inplace=True)
    )
    (4): LinearLayer(
      (linear): Conv2d(512, 512, kernel_size=(1, 1), stride=(1, 1), bias=False)
      (norm): BatchNorm2d(512, eps=1e-05, momentum=0.1, affine=True, track_running_stats=True)
      (acivation): LeakyReLU(negative_slope=0.01, inplace=True)
    )
    (5): LinearLayer(
      (linear): Conv2d(512, 512, kernel_size=(1, 1), stride=(1, 1), bias=False)
      (norm): BatchNorm2d(512, eps=1e-05, momentum=0.1, affine=True, track_running_stats=True)
      (acivation): LeakyReLU(negative_slope=0.01, inplace=True)
    )
    (6): LinearLayer(
      (linear): Conv2d(512, 64, kernel_size=(1, 1), stride=(1, 1), bias=False)
      (norm): BatchNorm2d(64, eps=1e-05, momentum=0.1, affine=True, track_running_stats=True)
      (acivation): LeakyReLU(negative_slope=0.01, inplace=True)
    )
  )
  (out): Conv2d(64, 1, kernel_size=(1, 1), stride=(1, 1))
)
epoch   0, iter  0, lr 0.0000000000, loss 1.0628
epoch   0, iter  1, lr 0.0000004878, loss 1.0044
epoch   0, iter  2, lr 0.0000009756, loss 1.1818
epoch   0, iter  3, lr 0.0000014634, loss 1.1224
epoch   0, iter  4, lr 0.0000019512, loss 1.1584
epoch   0, iter  5, lr 0.0000024390, loss 1.0572
epoch   0, iter  6, lr 0.0000029268, loss 1.1196
epoch   0, iter  7, lr 0.0000034146, loss 1.2630
…
